final_nn_classifier.pth (torch, 266179 bytes, 4 tensors)

weight f4 [32, 2048]
00000000: ff50 49bd d0e1 7f3d afe3 2b3e a95c 80be
00000010: 2d2e 253e 6aee 7c3e 5566 513d 488f 6cbd
00000020: 5e74 2d3e fc3b 453e 7c9d 1b3e a2d2 c33d
00000030: ca22 eb3d e310 e9bc 9dda 7e3d 8f79 423d
00000040: e53d 9abe f0a8 2b3c a326 c03d a924 803e
00000050: cd2b 2cbd bd7c 6ebe 3180 503d c166 3cbd
00000060: b7d1 d83d b190 2f3d d4e9 dfbd ae54 0cbc
00000070: d06d e6bd 2eea eebd ab30 05be 3bfe 8ebd
00000080: 36af 253e 023e 6d3d 539a 123e d315 5ebc
00000090: 3aec f03d d3ce f0bd d9b6 633d f2ce 8c3d
000000a0: 3d76 a23d 2dd1 c13d 924d 043e e37a 3e3e
000000b0: aec9 c53e 875d 933d 00be 77bd d83d 9cbd
000000c0: e882 213c 7369 243d 7c37 0e3e 8772 a1bd
000000d0: e308 f23d 3c96 9b3d 5628 d0bd 97bc 83be
000000e0: d189 4cbc f5a6 323d 18bc aa3d 39b0 00be
000000f0: 4ba5 183e c718 b13d e959 09be 2215 023d
00000100: 3ccf f53d 69a8 463d 69a6 25bd a281 efbd
00000110: 93b7 bebd 80e0 7dbc c788 ca3c cd34 363e
00000120: eee4 9c3b 055c 8b3c 6179 3e3d b967 9f3d
00000130: 056c a03d c918 533e 2115 fcbe 1580 d3ba
00000140: c0ac 833c 39ce 1b3e dcd3 e7ba 9e2a 523e
00000150: f31b 35bd 5751 b8bd cf7e 4f3d 7fb0 8c3d
00000160: e1f9 adbd 579f 303d 703b 56bd ce31 f33d
00000170: 809c bbbd 9482 1f3e 64bd 32bd 18ab 373d
00000180: 273b f03d c7ba 99bd 5885 c6bb d860 e73d
00000190: 4541 233e bd54 69bd da22 573d bbbe 52bb
000001a0: ac69 063e 8b3c 02be f3ee 133c 5dc8 073c
000001b0: b0d2 1d3e 05c6 763e 04e9 a5bd 7fc0 a5bd
000001c0: c0a8 87be b159 873e bf1a c73d 5166 613e
000001d0: 7c65 793d 3dde 4e3c 9f0a 2f3e d067 613c
000001e0: 8845 be3d 2ccb 713e 3564 b03d 2870 a13c
000001f0: bd36 683e 6723 673d 8573 ef3d 2b87 99bd
00000200: f66b 42bd 0134 153d bc98 9b3c 51b8 bc3d
00000210: 21ac e2bc 9d61 fa3c 6f41 d43e 595e 093c
00000220: 3ba5 af3c 7d7f 8cbd 4ee1 c5bd a845 c03d
00000230: 69e5 b93d cec4 d7bd 9778 bc3e 65b1 16be
00000240: 3e3e b13d bab6 333d 76c9 0b3d bab5 8cbd
00000250: c94b d6bd 55d5 0cbe 1e26 083e 6e5f babd
00000260: d3a5 c8bb 7c6a 13bd a705 a63d 7c03 6c3d
00000270: 2ff7 a83d 4df6 68bc e500 e5bc 56ef dc3d
00000280: aef1 44bb 1b28 963b 9df9 9f3d c34f 293e
00000290: e192 95bd fb2d dc3d 7c0b 633b 9dcb 23be
000002a0: 3a73 27bd aa24 a53d c47e 76bd cd95 733d
000002b0: 20b2 6cbb e849 cc3d 2c8d 833e 8c9f 8a3d
000002c0: 3c81 aa3c c61d 063e c4ff 003e 7f4c 18be
000002d0: e2e8 103d 9696 26be 7c67 ea3a 5680 1c3d
000002e0: 9669 263e 0cbe c13d 2d88 3d3e 6623 94bd
000002f0: 949c 7fbc ba33 c7bd b138 b33d 64a5 5b3d
00000300: feda 5a3d da07 01bd 99b5 23bd ad03 683d
00000310: 1f00 583d 3f15 b33c e2a8 723e 7049 f63c
00000320: 6ff8 47be e276 86bd 5ff5 263d ce0f babd
00000330: 4883 38be 8975 723d 874d 9abe 4c1c a73e
00000340: b1f8 8fbe 7a29 4f3e 4f2b b73b d6ce fc3c
00000350: 3b96 15bc 0343 2aba 871a 25be ef85 5bbd
00000360: c550 5a3e b47c 0f3e 73b3 093e 099f 3ebc
00000370: 59b4 043d 1d61 bfbc f0fe 333d e23f 36bc
00000380: 12d1 4f3e 891e 6c3d cd1d 1cbc 0a3b 43bd
00000390: 88ce 09be 8a12 3d3e f1b1 5abe 4970 43be
000003a0: 5d0f 6b3e afc4 fb3d 49f0 40bd 7acb 853d
000003b0: ca52 523e 7e62 33bd 6d67 213e 499b aa3e
000003c0: fa74 a13d 1760 c1bd a2a4 843d 514a 9f3e
000003d0: a6aa 833d a4aa 063e 9243 37be 6de2 e43d
000003e0: 3c30 8f3c 59c5 323d 1ab7 903c 5e47 53bd
000003f0: 672f eebb 788c 3c3e bc84 10bc 5660 dc3d
-0.04914951 0.06247121 0.16786073 -0.25070694 0.16130896 0.24700323 0.051122982 -0.05775383
0.16938922 0.19261163 0.15196794 0.095616594 0.11481245 -0.028450435 0.062220205 0.04747921
-0.30125347 0.01047729 0.09382369 0.2502797 -0.04203396 -0.23289771 0.050903503 -0.04599643
0.10586875 0.042862598 -0.10933271 -0.008565111 -0.11251414 -0.1166576 -0.13006847 -0.06982084
0.16180119 0.057920463 0.14316683 -0.013555008 0.11763807 -0.117581986 0.0555943 0.06875409
0.079327084 0.09463725 0.12920216 0.18601565 0.38630432 0.07195573 -0.060483932 -0.07628983
0.009857871 0.040139627 0.13888353 -0.078831725 0.11818101 0.07597014 -0.101639435 -0.2572982
-0.01248403 0.043616254 0.08336657 -0.12567224 0.14906804 0.08647304 -0.13413204 0.031758435
0.120024174 0.048500452 -0.040441904 -0.11694647 -0.09312358 -0.0154954195 0.024723424 0.1779358
0.0047880327 0.017011652 0.046502475 0.077834554 0.07833103 0.20614924 -0.4923487 -0.0016136194
0.016073585 0.15215386 -0.001768704 0.2052407 -0.044216108 -0.08999889 0.050658043 0.068696015
-0.08494926 0.04312071 -0.052302778 0.11874734 -0.091607094 0.15577155 -0.04363765 0.044840902
0.117300324 -0.07506328 -0.0060583763 0.11297768 0.15942867 -0.05696558 0.05252347 -0.0032157141
0.13126248 -0.12718408 0.009029138 0.008287516 0.15412402 0.24098976 -0.08101085 -0.08093356
-0.26495934 0.26435617 0.09721898 0.22011687 0.0608878 0.012626228 0.17093895 0.013757661
0.09290606 0.2361266 0.08612863 0.0197068 0.22677131 0.056430247 0.116919555 -0.07496484
-0.04746624 0.036426548 0.018993728 0.09214843 -0.027669968 0.030564124 0.41456172 0.008384311
0.021441093 -0.06860254 -0.09662114 0.09388286 0.0907696 -0.105355844 0.36810753 -0.14716108
0.0865445 0.043875434 0.034127675 -0.06870599 -0.104636736 -0.13753255 0.1329579 -0.09100233
-0.0061232834 -0.035990223 0.08106547 0.05762051 0.082502715 -0.014218879 -0.027954528 0.10787837
-0.003005128 0.0045824177 0.07811282 0.16534333 -0.073034056 0.107509576 0.0034644296 -0.15995641
-0.040881373 0.08063634 -0.060179487 0.059469033 -0.0036116913 0.09975034 0.25693643 0.067687124
0.020813577 0.13097295 0.12597567 -0.14872931 0.035378344 -0.16268381 0.0017883624 0.03820833
0.16251215 0.09460077 0.18508978 -0.07233314 -0.015601296 -0.09726663 0.087510474 0.053624526
0.053431503 -0.03150163 -0.039968107 0.05664413 0.05273449 0.021860717 0.23697236 0.030064315
-0.19528364 -0.06565644 0.040761348 -0.09085046 -0.1801883 0.05919412 -0.30137274 0.32638776
-0.28119424 0.20230666 0.0055898796 0.030860346 -0.009130056 -0.0006494971 -0.161234 -0.053594526
0.21319874 0.14012414 0.1344736 -0.011634597 0.032398555 -0.023361737 0.0439443 -0.011123629
0.20294598 0.057646308 -0.009528589 -0.047663726 -0.13457692 0.18464103 -0.21356942 -0.19085802
0.2295508 0.12293374 -0.047104154 0.06532951 0.20539394 -0.0437951 0.1576211 0.33321598
0.0788364 -0.09442156 0.06476714 0.31111386 0.06429033 0.13151032 -0.1789687 0.11176
0.017479055 0.043645237 0.017665435 -0.051581733 -0.0072688344 0.1841296 -0.008820709 0.10760562

bias f4 [32]
00000000: db3e 253f f76f 403f 8714 e93e 45de 16be
00000010: 36d5 c13e 9a91 803d 8905 343e b1be 703e
00000020: d0aa f83e 8ecf 963c 2840 25bd b67c 063c
00000030: bd12 633e 5ab9 573f e326 a83c ac26 303f
00000040: 779f e03e b8c9 d13e d11a 013e 7e06 463f
00000050: 8e41 1b3e defc f03e db9a e53e 62f7 ae3e
00000060: 4176 063f ba5f 7a3e 7b37 b33e e51f a23e
00000070: 3736 3b3e c6b6 1b3f 0c4b a33e 799d 1d3f
0.64549035 0.75170845 0.45523474 -0.14733227 0.3785798 0.06277771 0.17580236 0.23510243
0.4856782 0.018409517 -0.040344387 0.008208444 0.22175117 0.842672 0.020526355 0.6880901
0.43871662 0.40974212 0.12607886 0.77353656 0.15161726 0.47067922 0.44844708 0.34173113
0.5252419 0.2445058 0.35003266 0.3166496 0.182824 0.60825765 0.31893194 0.6156841

weight f4 [10, 32]
00000000: 4292 76be 7671 9a3e 1a4e 3ebf 4f2d 11bf
00000010: 3825 f7be 54c6 d53e 55ae 2ebf cffa 933e
00000020: c718 31be 938d f03e ef96 d7be 646e 213e
00000030: 404e ea3e e6b7 cdbe b36a 30be 01f0 15bf
00000040: a2c3 97be e417 1dbf b339 0ebf 2f20 42bf
00000050: 7cd1 093f 377e e4be e0b4 7e3e 5ea2 a4be
00000060: a29b b03e 8432 b23e e97c 29be 1f24 1bbf
00000070: ceca e2be a2df 1abf 42de cd3e 76be a8be
00000080: c8ec a03e d48f 833f a92b 0c3c 44ec 11bd
00000090: d667 e9be 2d00 43bf 4337 6bbf c6f0 703e
000000a0: f68d 22bf 9be3 e9be 9ed4 773e e000 82bf
000000b0: 32ea 49bc 9057 5abf 1ee4 b63e 7105 de3e
000000c0: 64d2 38bf 1462 7cbe 7396 6b3e bb60 cf3e
000000d0: 4085 bbbe 8a85 eabe eaad d73e 29a1 aa3e
000000e0: d9f6 d1bd fb6d 8bbe 71ba 25be 8b98 eebd
000000f0: cf9b 8a3e 70e6 3a3f 3090 a03e b374 4f3e
00000100: eb6b 61be 0bed 91bf e627 133f 27cf 6e3e
00000110: b15d a23e b341 e43e d31c a73e 57bc 6ebe
00000120: 8a95 8a3e be00 513e 81e5 f5bd 126a 25bf
00000130: 25da 93bd 52d8 abbe c0be 7d3e 7ea5 803e
00000140: 26d1 6e3d 13a4 413e c45a 84bf f915 0a3e
00000150: 2be3 21bf 9599 9c3e 6faf 53bf 26e7 973e
00000160: fd85 86bf 77b2 043f 6767 8abf 9ae9 63be
00000170: 50d4 c93e ffee 34bf 49e9 da3e f6d8 1d3d
00000180: 721a dd3e 895a 4abf fa31 15bf 1696 88be
00000190: 1b5e 313f 4390 2bbf 5e4f b7be 7340 1f3c
000001a0: fe98 2f3f ca6e e1be 25a7 273e ca63 213f
000001b0: 2507 44be 798a 4abf cd9c 943e 5226 20bf
000001c0: a095 b9bd b598 2c3f 68b2 9b3d b0a1 11bd
000001d0: 8874 403f d3da 42bf beac 05bf 611d 48bf
000001e0: 99d3 df3d 4bde f93e 66f0 c93e 1801 cb3e
000001f0: 0648 ecbd f9c2 08bf 5c9e 223d 4cee 8f3e
00000200: 553e bbbe b18f acbe 55d1 d2be 3b86 9b3e
00000210: b73a 00bf a08d 3c3f 4b32 1a3f 82c8 27bf
00000220: 06a8 eabe 6c5c e5be d107 943e cbc4 bf3e
00000230: 7379 e03e 0f67 2ebf 272b a1be 40ef 34bf
00000240: 4480 82be e692 74be 3662 b03e fe4e f0bd
00000250: 532d 37bf 49a1 dcbe 6d35 823e 0cbc 9e3e
00000260: 4d93 cf3e b173 f2be bad5 7c3e 16bd c23e
00000270: 3287 b3bd e2cc 2dbf 1360 26bf 5601 8b3d
00000280: 9f11 40bf b7cc 07bf 09cf 2ebf 0108 9f3e
00000290: 4671 98be 9624 17bf 1ebd 313e f626 c93e
000002a0: def5 1bbf 030d 0c3f 177e d53e 47f8 30bf
000002b0: 0007 11bf 9339 c7be bdbc a33e ac2e f9be
000002c0: b6ee 36bf e774 c63e 75dc b63e 0813 423c
000002d0: 028e 713e 4986 9f3e bfd2 83be 95c4 8a3d
000002e0: 25b4 f0be 674f bfbe 6b23 2ebf 30ae 04bf
000002f0: 4e87 14bf 43c3 0f3d f948 23bf 82f4 09bf
00000300: 058c 10bf a1d9 1a3f 66bf 69bf 3804 fa3c
00000310: 7bf5 563f 6dfb 75bf 07dc 1b3e 0980 f3be
00000320: fc8f 973e e059 51bf e5c2 9cbe 3edd 04bf
00000330: 1b10 723f b4b2 0b3f f7c2 013e 65c0 923e
00000340: f2ac afbe b2e9 4cbf 9362 a3be d574 03be
00000350: ebdb 193e 86d9 29bf fd22 16bf 966d 23be
00000360: c0ec 0bbd 1c3f 8ebe 5a69 a23e 023f 17bf
00000370: 9d95 d8be 2150 08bf ca3e ebbe bb0c b3bd
00000380: 07a1 19bf 8c66 68bf 62f1 41be 9fea 6bbf
00000390: 9c3c 25bf 335b c83d 7a21 43bf 2f2f ad3e
000003a0: 01fa 15bf 58de 343e 28e3 2abf 490f 413f
000003b0: 31f5 30bf a441 833e 5966 80bf 15e1 cb3e
000003c0: 6a26 653f 5081 983e c813 833e d4bb 3a3e
000003d0: 9652 56be 69fd 44be c3d5 0d3f 5d6c 23bf
000003e0: 5478 f5be 8feb 26bf f535 183f d150 09bf
000003f0: a163 393f 3ab7 023f bfd5 8f3e 4529 33bf
-0.2407923 0.3016469 -0.74337924 -0.5670976 -0.48270583 0.41752875 -0.6823476 0.2890229
-0.17294608 0.46983013 -0.4210734 0.15764767 0.45762825 -0.40179366 -0.17228203 -0.5856934
-0.29641443 -0.6136458 -0.5555679 -0.7583036 0.5383527 -0.44627544 0.24873686 -0.32155126
0.34493738 0.34804165 -0.16551556 -0.6060199 -0.44295353 -0.60497487 0.40208632 -0.3295781
0.3143065 1.0278268 0.008555331 -0.03562571 -0.45587033 -0.76172143 -0.918812 0.23529348
-0.63497865 -0.45681462 0.24202201 -1.0156517 -0.012323903 -0.8528986 0.35720915 0.43363526
-0.7219603 -0.24646789 0.2300661 0.40503487 -0.366251 -0.45805007 0.42124873 0.3332608
-0.102521606 -0.27232346 -0.16184403 -0.11650189 0.27071998 0.7300787 0.31360006 0.20259361
-0.22013824 -1.1400465 0.57482755 0.2332121 0.31712106 0.44581375 0.3263918 -0.23314033
0.27067214 0.2041044 -0.12006665 -0.64614975 -0.07219342 -0.33563477 0.24779797 0.2512626
0.05830493 0.18910246 -1.03402 0.13484944 -0.63237256 0.30585924 -0.82689565 0.2966854
-1.050964 0.51834816 -1.0812806 -0.2225708 0.39419794 -0.7067718 0.42756107 0.03853699
0.4318424 -0.79044396 -0.58279383 -0.26677006 0.6928422 -0.67017 -0.3580274 0.009719956
0.6859282 -0.44029838 0.16372354 0.6304289 -0.1914335 -0.7911754 0.2902588 -0.6255847
-0.09061742 0.6742051 0.07602388 -0.035554588 0.7517781 -0.7611515 -0.5221671 -0.7816983
0.10929031 0.4880241 0.39441222 0.39649272 -0.11537175 -0.53422505 0.039701805 0.28111494
-0.36570993 -0.33703378 -0.41175333 0.30375847 -0.5008959 0.736536 0.6023299 -0.65540326
-0.45831317 -0.44797075 0.28912213 0.3745483 0.43842658 -0.68126005 -0.31478235 -0.70677567
-0.25488484 -0.23884162 0.3444993 -0.117338166 -0.71553534 -0.430918 0.25431386 0.31002843
0.4054207 -0.4735389 0.24690905 0.38034886 -0.08766021 -0.6789075 -0.6499035 0.06787364
-0.7502689 -0.53046745 -0.6828466 0.31060794 -0.2977392 -0.590402 0.17357299 0.39287537
-0.6092204 0.54707354 0.4169776 -0.6912884 -0.56651306 -0.38911113 0.31979933 -0.4866842
-0.71457994 0.38761064 0.3571507 0.011845358 0.23589328 0.3115714 -0.25746724 0.06775776
-0.4701244 -0.37365267 -0.68022794 -0.5182829 -0.5801896 0.035098325 -0.6378322 -0.53888714
-0.5646365 0.60488325 -0.91307676 0.03051959 0.83968323 -0.9608677 0.15220653 -0.4755862
0.2960204 -0.81777763 -0.30617443 -0.5190009 0.94555825 0.54569554 0.1267203 0.2866241
-0.34311634 -0.8004409 -0.31911144 -0.12837537 0.15025298 -0.6634754 -0.5864714 -0.15959772
-0.03416133 -0.27782524 0.31721002 -0.5908052 -0.42301646 -0.53247267 -0.45946342 -0.087426625
-0.60011333 -0.90781474 -0.18939736 -0.9215488 -0.6454561 0.0978302 -0.76222956 0.3382506
-0.585846 0.17662942 -0.6675286 0.7541395 -0.6912413 0.25636017 -1.0031234 0.3982016
0.8951174 0.29786158 0.2560103 0.18235713 -0.20929942 -0.19237293 0.554043 -0.63837224
-0.47943366 -0.65203184 0.5945733 -0.5363894 0.72417647 0.5106083 0.28092763 -0.6998485

bias f4 [10]
00000000: 15e2 ca3d 8d69 2f3e e289 08bf d14b 56be
00000010: 7ce4 8fbe 3947 4ebe 6cd1 403e 9e3a 453e
00000020: f75a 023d b387 f63e
0.09906403 0.17130108 -0.5333539 -0.20927359 -0.28104007 -0.20144357 0.18829888 0.19260642
0.031825032 0.48150405
